…
2017-12-28 22:17:09.584493: I tensorflow/core/common_runtime/gpu/gpu_device.cc:1052] Creating TensorFlow device (/device:GPU:0) -> (device: 0, name: GeForce GTX 1080 Ti, pci bus id: 0000:01:00.0, compute capability: 6.1)
2017-12-28 22:17:10.484046: I tensorflow/core/common_runtime/gpu/gpu_device.cc:1052] Creating TensorFlow device (/device:GPU:0) -> (device: 0, name: GeForce GTX 1080 Ti, pci bus id: 0000:01:00.0, compute capability: 6.1)
_________________________________________________________________
Layer (type)                 Output Shape              Param #   
=================================================================
input (InputLayer)           (None, 28, 28, 1)         0         
_________________________________________________________________
conv11 (Conv2D)              (None, 28, 28, 32)        320       
_________________________________________________________________
conv11_relu (Activation)     (None, 28, 28, 32)        0         
_________________________________________________________________
conv11_bn (BatchNormalizatio (None, 28, 28, 32)        128       
_________________________________________________________________
conv12 (Conv2D)              (None, 14, 14, 64)        18496     
_________________________________________________________________
conv12_relu (Activation)     (None, 14, 14, 64)        0         
_________________________________________________________________
conv12_bn (BatchNormalizatio (None, 14, 14, 64)        256       
_________________________________________________________________
conv21 (Conv2D)              (None, 14, 14, 128)       73856     
_________________________________________________________________
conv21_relu (Activation)     (None, 14, 14, 128)       0         
_________________________________________________________________
conv21_bn (BatchNormalizatio (None, 14, 14, 128)       512       
_________________________________________________________________
conv22 (Conv2D)              (None, 7, 7, 128)         147584    
_________________________________________________________________
conv22_relu (Activation)     (None, 7, 7, 128)         0         
_________________________________________________________________
conv22_bn (BatchNormalizatio (None, 7, 7, 128)         512       
_________________________________________________________________
avg_pool (GlobalAveragePooli (None, 128)               0         
_________________________________________________________________
fc1 (Dense)                  (None, 10)                1290      
_________________________________________________________________
out (Activation)             (None, 10)                0         
=================================================================
Total params: 242,954
Trainable params: 242,250
Non-trainable params: 704
_________________________________________________________________
Epoch 1/3

   1/1875 [..............................] - ETA: 22:35 - loss: 2.2745 - acc: 0.1562
   9/1875 [..............................] - ETA: 2:40 - loss: 1.9060 - acc: 0.3889 
  18/1875 [..............................] - ETA: 1:25 - loss: 1.7121 - acc: 0.4653
…
1851/1875 [============================>.] - ETA: 0s - loss: 0.0348 - acc: 0.9896
1861/1875 [============================>.] - ETA: 0s - loss: 0.0348 - acc: 0.9896
1870/1875 [============================>.] - ETA: 0s - loss: 0.0349 - acc: 0.9896
1875/1875 [==============================] - 12s 6ms/step - loss: 0.0350 - acc: 0.9895 - val_loss: 0.0400 - val_acc: 0.9879

....

Test accuracy 0.9879
Test accuracy with scaled images 0.5993
_________________________________________________________________
Layer (type)                 Output Shape              Param #   
=================================================================
input (InputLayer)           (None, 28, 28, 1)         0         
_________________________________________________________________
conv11 (Conv2D)              (None, 28, 28, 32)        320       
_________________________________________________________________
conv11_relu (Activation)     (None, 28, 28, 32)        0         
_________________________________________________________________
conv11_bn (BatchNormalizatio (None, 28, 28, 32)        128       
_________________________________________________________________
conv12_offset (ConvOffset2D) (None, 28, 28, 32)        18432     
_________________________________________________________________
conv12 (Conv2D)              (None, 14, 14, 64)        18496     
_________________________________________________________________
conv12_relu (Activation)     (None, 14, 14, 64)        0         
_________________________________________________________________
conv12_bn (BatchNormalizatio (None, 14, 14, 64)        256       
_________________________________________________________________
conv21_offset (ConvOffset2D) (None, 14, 14, 64)        73728     
_________________________________________________________________
conv21 (Conv2D)              (None, 14, 14, 128)       73856     
_________________________________________________________________
conv21_relu (Activation)     (None, 14, 14, 128)       0         
_________________________________________________________________
conv21_bn (BatchNormalizatio (None, 14, 14, 128)       512       
_________________________________________________________________
conv22_offset (ConvOffset2D) (None, 14, 14, 128)       294912    
_________________________________________________________________
conv22 (Conv2D)              (None, 7, 7, 128)         147584    
_________________________________________________________________
conv22_relu (Activation)     (None, 7, 7, 128)         0         
_________________________________________________________________
conv22_bn (BatchNormalizatio (None, 7, 7, 128)         512       
_________________________________________________________________
avg_pool (GlobalAveragePooli (None, 128)               0         
_________________________________________________________________
fc1 (Dense)                  (None, 10)                1290      
_________________________________________________________________
out (Activation)             (None, 10)                0         
=================================================================
Total params: 630,026
Trainable params: 387,776
Non-trainable params: 242,250
_________________________________________________________________
Epoch 1/20

   1/1875 [..............................] - ETA: 15:57 - loss: 0.7592 - acc: 0.8438
   2/1875 [..............................] - ETA: 9:07 - loss: 0.8773 - acc: 0.7500 
…
